imitation/metadata/stats.safetensors (safetensors, 3240 bytes, 12 tensors)

action/max f4 [6]
00000000: 7b8b 913c bf36 c43d d095 4a3e c7a5 003d
00000010: 3229 023d 55af 8c3d
0.017766705 0.095807545 0.19783711 0.031408098 0.03177757 0.068693794

action/mean f4 [6]
00000000: da34 e83a 8a6b 493b d985 9c3d 1315 e538
00000010: b228 96ba cf15 f3b9
0.0017715946 0.0030734264 0.07642717 0.00010923496 -0.001145622 -0.0004636482

action/min f4 [6]
00000000: a5ed 6bbc 9032 15bd 0e97 babd bb5f b1bb
00000010: 78bd 87bc dada 62bd
-0.014399921 -0.036425173 -0.09110843 -0.0054130233 -0.016569838 -0.055384494

action/std f4 [6]
00000000: c69e 7c3b b8ab e83c 1f35 6d3d f98b b63a
00000010: 6bbf b43b b8a4 323b
0.0038546785 0.028402194 0.05791199 0.0013927213 0.005515983 0.0027258825

observation.image/max f4 [3, 1, 1]
00000000: 0000 803f 0000 803f 0000 803f
1.0 1.0 1.0

observation.image/mean f4 [3, 1, 1]
00000000: 405e 243f cb25 153f de9d 223f
0.64206314 0.5826079 0.63522136

observation.image/min f4 [3, 1, 1]
00000000: 0000 0000 0000 0000 0000 0000
0.0 0.0 0.0

observation.image/std f4 [3, 1, 1]
00000000: d384 113e d9d9 273e e28d 313e
0.14210825 0.16391696 0.1733928

observation.state/max f4 [7]
00000000: 3391 8a3e 6196 213d 92c9 b53e da0f 4940
00000010: cabb a93c 94b0 653d 0000 803f
0.27063903 0.039450053 0.35505348 3.1415925 0.020719428 0.0560766 1.0

observation.state/mean f4 [7]
00000000: 39e2 833e 5416 ff3b b3b3 893e 2e3b 6cbf
00000010: 1699 6dbb 2f5f 9ebb 0c44 b23e
0.25758532 0.007784644 0.26894912 -0.922778 -0.0036254576 -0.004833124 0.3481754

observation.state/min f4 [7]
00000000: 7d75 7f3e 0f00 86bd 9440 1f3e db0f 49c0
00000010: c61c 31bd 597f 92bd 0000 0000
0.24947162 -0.0654298 0.15551978 -3.1415927 -0.04324033 -0.07153196 0.0

observation.state/std f4 [7]
00000000: e29c 8d3b 8a1a 823c 74cb 4b3d 14e3 3f40
00000010: 410c 453c e9f3 933c aae9 f33e
0.0043216804 0.015881795 0.049754575 2.9982347 0.012026847 0.018060641 0.4763921
